…
2020-04-14 11:03:32.171536: I tensorflow/stream_executor/platform/default/dso_loader.cc:44] Successfully opened dynamic library libcudnn.so.7
2020-04-14 11:03:32.807949: W tensorflow/stream_executor/cuda/redzone_allocator.cc:312] Not found: ./bin/ptxas not found
Relying on driver to perform ptx compilation. This message will be only logged once.
Trying to load training data from datasets/amazon
Not found, generating...
DONE
Model: "sequential"
_________________________________________________________________
Layer (type)                 Output Shape              Param #   
=================================================================
embedding (Embedding)        (None, 500, 64)           640000    
_________________________________________________________________
separable_conv1d (SeparableC (None, 500, 64)           4352      
_________________________________________________________________
max_pooling1d (MaxPooling1D) (None, 250, 64)           0         
_________________________________________________________________
separable_conv1d_1 (Separabl (None, 250, 128)          8512      
_________________________________________________________________
max_pooling1d_1 (MaxPooling1 (None, 125, 128)          0         
_________________________________________________________________
separable_conv1d_2 (Separabl (None, 125, 256)          33408     
_________________________________________________________________
max_pooling1d_2 (MaxPooling1 (None, 62, 256)           0         
_________________________________________________________________
separable_conv1d_3 (Separabl (None, 62, 256)           66560     
_________________________________________________________________
max_pooling1d_3 (MaxPooling1 (None, 31, 256)           0         
_________________________________________________________________
flatten (Flatten)            (None, 7936)              0         
_________________________________________________________________
dense (Dense)                (None, 600)               4762200   
_________________________________________________________________
dropout (Dropout)            (None, 600)               0         
_________________________________________________________________
dense_1 (Dense)              (None, 150)               90150     
_________________________________________________________________
dropout_1 (Dropout)          (None, 150)               0         
_________________________________________________________________
dense_2 (Dense)              (None, 150)               22650     
_________________________________________________________________
dense_3 (Dense)              (None, 1)                 151       
=================================================================
Total params: 5,627,983
Trainable params: 5,627,983
Non-trainable params: 0
_________________________________________________________________
None
Train on 319999 samples, validate on 80001 samples
Epoch 1/10
319999/319999 - 195s - loss: 0.6682 - mae: 0.6682 - acc: 0.2501 - val_loss: 0.0412 - val_mae: 1.0291 - val_acc: 1.0000
…
